model/keypoint_classifier/keypoint_classifier.tflite (tflite, 22432 bytes, 6 tensors)

dense_137/bias f4 [5]
00000000: 710d 623e 8cd1 bcbd c9b1 ae3e e01e 5fbe
00000010: 366a cebe
0.2207544 -0.092196554 0.34120014 -0.21789122 -0.40315408

dense_136/bias f4 [10]
00000000: 9d5f 5c3f 0ffc b33e 83a3 c9bd 3ea9 b53d
00000010: b650 45be 03c1 88be 327c 0b3f b506 fcbd
00000020: 531b b53d 888f c6bc
0.86083394 0.35153243 -0.098456405 0.08870171 -0.1926907 -0.26709756 0.5448638 -0.12305967
0.08843102 -0.024238363

dense_135/bias f4 [20]
00000000: 6475 843c e473 78be 73ad 113e a072 9c3d
00000010: 7490 ef3d 1482 afbd fdcc 103d 34d5 713d
00000020: cd8a e0bc 6f71 4b3e 1c4e 91bd b1f9 72be
00000030: fc81 60bd 4345 243d 8d58 6dbe d782 81bc
00000040: c69f 0e3e ba0c 73be 96c5 2dbd 07c7 77bd
0.016169257 -0.24262959 0.14226322 0.076390505 0.11697474 -0.08569732 0.035351742 0.059041217
-0.027409935 0.1986749 -0.07094976 -0.23728062 -0.054811463 0.040105116 -0.2317831 -0.01580946
0.13928136 -0.23735324 -0.04242476 -0.06049254

sequential_36/dense_135/MatMul i1 [20, 956] scale=0.009391839 zero_point=0
00000000: fef8 f402 f114 fff9 f803 fc09 f5f6 05fe
00000010: f5f3 f1f5 fafc e511 da16 e008 fdd4 00d8
00000020: 01d0 f5dc fbee ee05 f408 06f3 00f8 0cff
00000030: fff9 f9f5 07f7 fd00 0304 f906 fffa fcfc
00000040: 02fb 0701 04fe fbfc fe00 f2e0 db0e ebe6
00000050: e8ed d502 d2f7 0bfb f702 fa0c 0502 02fc
00000060: 0403 0801 fd04 f6ff 05fb f9fa fc00 01f6
00000070: 04fe fb02 f80b f70c f90d d6e7 d6ee fcff
00000080: 0406 f7ff fefc 06fe faf8 0402 fdff 05fe
00000090: e908 de01 e7ef fb06 d5e7 e0df cce2 f90e
000000a0: d8fc d90a cf06 03f1 f3dd f9d1 f6cc edcb
000000b0: dadb d8e3 e1dc eee4 022f 0603 ec13 cbe9
000000c0: d1ec f412 fb08 fc10 fefb fe06 f808 01f7
000000d0: 00fb f8f7 0efd f203 06fd 0401 fefb 00fd
000000e0: 0dfc 07f7 fefa 0004 fef7 fcf7 0405 0602
000000f0: 08f6 06f9 f600 02f8 0203 e90d 0402 fc03
-0.018783677 -0.07513471 -0.112702064 0.018783677 -0.14087757 0.18783677 -0.009391839 -0.06574287
-0.07513471 0.028175516 -0.037567355 0.08452655 -0.10331023 -0.09391838 0.04695919 -0.018783677
-0.10331023 -0.1220939 -0.14087757 -0.10331023 -0.056351032 -0.037567355 -0.25357965 0.15966126
-0.35688987 0.20662045 -0.30053884 0.07513471 -0.028175516 -0.4132409 0.0 -0.37567353
0.009391839 -0.45080826 -0.10331023 -0.3381062 -0.04695919 -0.1690531 -0.1690531 0.04695919
-0.112702064 0.07513471 0.056351032 -0.1220939 0.0 -0.07513471 0.112702064 -0.009391839
-0.009391839 -0.06574287 -0.06574287 -0.10331023 0.06574287 -0.08452655 -0.028175516 0.0
0.028175516 0.037567355 -0.06574287 0.056351032 -0.009391839 -0.056351032 -0.037567355 -0.037567355
0.018783677 -0.04695919 0.06574287 0.009391839 0.037567355 -0.018783677 -0.04695919 -0.037567355
-0.018783677 0.0 -0.13148575 -0.30053884 -0.34749803 0.13148575 -0.19722861 -0.2441878
-0.22540413 -0.17844494 -0.40384907 0.018783677 -0.43202457 -0.08452655 0.10331023 -0.04695919
-0.08452655 0.018783677 -0.056351032 0.112702064 0.04695919 0.018783677 0.018783677 -0.037567355
0.037567355 0.028175516 0.07513471 0.009391839 -0.028175516 0.037567355 -0.09391838 -0.009391839
0.04695919 -0.04695919 -0.06574287 -0.056351032 -0.037567355 0.0 0.009391839 -0.09391838
0.037567355 -0.018783677 -0.04695919 0.018783677 -0.07513471 0.10331023 -0.08452655 0.112702064
-0.06574287 0.1220939 -0.39445722 -0.23479597 -0.39445722 -0.1690531 -0.037567355 -0.009391839
0.037567355 0.056351032 -0.08452655 -0.009391839 -0.018783677 -0.037567355 0.056351032 -0.018783677
-0.056351032 -0.07513471 0.037567355 0.018783677 -0.028175516 -0.009391839 0.04695919 -0.018783677
-0.21601228 0.07513471 -0.31932253 0.009391839 -0.23479597 -0.15966126 -0.04695919 0.056351032
-0.40384907 -0.23479597 -0.30053884 -0.30993068 -0.4883756 -0.28175515 -0.06574287 0.13148575
-0.37567353 -0.037567355 -0.36628172 0.09391838 -0.4602001 0.056351032 0.028175516 -0.14087757
-0.1220939 -0.32871434 -0.06574287 -0.4414164 -0.09391838 -0.4883756 -0.17844494 -0.49776745
-0.35688987 -0.34749803 -0.37567353 -0.27236333 -0.291147 -0.3381062 -0.1690531 -0.2629715
0.018783677 0.4414164 0.056351032 0.028175516 -0.18783677 0.17844494 -0.49776745 -0.21601228
-0.4414164 -0.18783677 -0.112702064 0.1690531 -0.04695919 0.07513471 -0.037567355 0.15026942
-0.018783677 -0.04695919 -0.018783677 0.056351032 -0.07513471 0.07513471 0.009391839 -0.08452655
0.0 -0.04695919 -0.07513471 -0.08452655 0.13148575 -0.028175516 -0.13148575 0.028175516
0.056351032 -0.028175516 0.037567355 0.009391839 -0.018783677 -0.04695919 0.0 -0.028175516
0.1220939 -0.037567355 0.06574287 -0.08452655 -0.018783677 -0.056351032 0.0 0.037567355
-0.018783677 -0.08452655 -0.037567355 -0.08452655 0.037567355 0.04695919 0.056351032 0.018783677
0.07513471 -0.09391838 0.056351032 -0.06574287 -0.09391838 0.0 0.018783677 -0.07513471
0.018783677 0.028175516 -0.21601228 0.1220939 0.037567355 0.018783677 -0.037567355 0.028175516

sequential_36/dense_136/MatMul f4 [10, 20]
00000000: 3205 ab3e c5bf c0be 4dd9 16bd bdd7 b83e
00000010: 1b93 2c3f 1740 a0be 31c2 2ebb d77d e83e
00000020: cfb9 d0be 7668 1d3f b197 86be 8d7b 7cbf
00000030: 281d 05be c502 273e c2a0 79bf 6cda cebe
00000040: e389 82bf 10bf 0abf ee33 853e 1a00 b7bd
00000050: 8499 28be 4e8f 2d3f 82f4 3cbe 8a93 9abe
00000060: 01d7 29bf 52ed 143f 52b6 b1bd 07ee d13e
00000070: 0847 15be 2671 2cbf c9a5 213d df17 223f
00000080: 7bf4 51bd 6da0 9dbc ede2 363f 19d5 ce3c
00000090: 2b16 e4be 94df 013f 885d a33e ace4 e53e
000000a0: c90a 99bf 6d02 a5be 18cc d5bd ef28 78bf
000000b0: 541e 613e 1ad9 513f 6bd0 133f 59b0 c4bf
000000c0: bc07 7fbe 2704 7c3e d0c3 9b3f 8d0e 22bf
000000d0: d444 9c3f 9d5f a1bf 6530 29bc fd3c 7d3f
000000e0: d3dd 5c3e 3fc9 fc3d 5c49 673e 90ba 2b3f
000000f0: 763d aebd 767f af3f 137e a13d 1690 8bbe
00000100: 0e2f b83e fdb3 603e 69b9 2bbe ffde e1bd
00000110: e07b cabd 0256 d0be 4e46 9bbd 82fc 6f3f
00000120: e667 bb3e e3ea c3bd 911d 8c3f 8a14 2cbd
00000130: d2bf 27be 3306 2d3f 2927 a93c fc52 223f
00000140: aca1 ab3d dadf 1cbf 5eb2 d23d d609 8f3f
00000150: a991 c33e 94e1 fdbf dcc7 483e 9245 843f
00000160: dda9 d73c 08f8 cc3e db4f 31bf 16ca 0cbf
00000170: a17c 9b3d 15a5 febc 022c 01bf 0750 aebe
00000180: 0674 33be 32df 79be 528e ac3d feb9 57bf
00000190: 8439 84bf c88a 9bbe b012 c13e 3036 28be
000001a0: 16fc eb3c 2d7f 3c3e 4a80 093f cda1 1bbf
000001b0: 0227 663e dcc8 2a3e f71e 443f 4292 0a3e
000001c0: 3594 633f bd22 91bf 06a9 a33e 0eec 793f
000001d0: d2df 5fbe d55e a3be 04fa 1cbc 960d e53e
000001e0: c592 8cbc 6cfd a3bf 07f1 3b3e 5618 06bf
000001f0: 423e 503d 0c3d 003f 8828 4ebe cc99 ddbb
00000200: fa8d 4abd 8b96 e13e 4e0d d53d b51b 23bf
00000210: 3306 d63d f841 253e eea3 9bbf 3d3d ddbd
00000220: 9add 303e a127 92be 989b 9c3b 97aa d73e
00000230: e50f 84be 23dc dd3e f90c e23c 79a7 603e
00000240: d9cb 223f aaee a9be af4c 903a 718c 38be
00000250: fbed 8cbb 9a51 273f 1a54 463f 2b41 543d
00000260: c1a9 b4bd d714 813e 0a79 af3e 2a45 f93c
00000270: 6a43 ad3c 9c8d 11bf bbc3 193c d803 02bf
00000280: 37fc 073f 143b 6b3f 1eb9 a4bd 7d7e 97bf
00000290: 2921 1d3f 6d81 5c3f 552d 06bf 4237 b9bf
000002a0: 898f 853f 5f01 3f3f 7f7b 803f 8558 fc3e
000002b0: a0e7 ecbd 2c10 513d e885 2d3f ac6a 0cbf
000002c0: ce47 6b3e ab48 5abf be51 9bbf 2e32 35bf
000002d0: a906 86bd 5354 083f 91b2 66be 1b7b 80bc
000002e0: 5a48 36be ff08 18bf 8a86 163f 5127 3cbe
000002f0: e506 20bf 32d3 acbe 4791 b9bc ca83 e1bd
00000300: 9232 273e a80d 39bd 8fef 613f 02e6 733e
00000310: 5656 7fbf afb6 c83e c409 d03e eb4e acbe
0.334024 -0.3764631 -0.036828328 0.36102095 0.67411965 -0.31298897 -0.002666604 0.45408508
-0.4076676 0.6148752 -0.26287606 -0.98626024 -0.12999403 0.1630965 -0.9751092 -0.40401018
-1.019833 -0.5419779 0.26016182 -0.08935566 -0.16464812 0.6779679 -0.18452647 -0.30190688
-0.66343695 0.5817462 -0.08677353 0.41001913 -0.14577878 -0.6736015 0.039464746 0.63317674
-0.051258545 -0.019241536 0.7144001 0.025248097 -0.44548163 0.5073178 0.31907296 0.44901025
-1.1956416 -0.32228413 -0.104393184 -0.9693746 0.21984226 0.81971896 0.57739896 -1.5366317
-0.24905294 0.24610959 1.2169132 -0.6330345 1.2208505 -1.2607304 -0.01032648 0.98921186
0.21568994 0.12343072 0.22586578 0.67081547 -0.085078165 1.3710773 0.07885375 -0.27258366
0.359734 0.2194366 -0.16769947 -0.11028861 -0.098869085 -0.4069062 -0.07581769 0.9374467
0.36602706 -0.095662855 1.0946523 -0.042011775 -0.16381767 0.67587584 0.020648556 0.63407874
0.08380446 -0.6127907 0.10287927 1.1174877 0.38197067 -1.9834466 0.1960749 1.0333731
0.026326114 0.40032983 -0.69262475 -0.5499586 0.075921305 -0.031084577 -0.50457776 -0.3404543
-0.17524728 -0.24401549 0.08425583 -0.84268177 -1.0330052 -0.3037932 0.3770957 -0.16426921
0.028806727 0.18407889 0.5371138 -0.60793763 0.22475818 0.16678184 0.7660975 0.13532355
0.8889802 -1.1338726 0.31964892 0.97625816 -0.21862724 -0.3190829 -0.009581093 0.44736928
-0.017159829 -1.2811713 0.18353663 -0.52380884 0.050840624 0.5009315 -0.20132649 -0.006762719
-0.049451806 0.44060168 0.10402928 -0.6371415 0.10450401 0.16138446 -1.2159402 -0.10802696
0.17272034 -0.2854586 0.0047792904 0.42122337 -0.25793377 0.43332013 0.027594076 0.21938886
0.63592297 -0.331899 0.0011009182 -0.18022324 -0.0043008304 0.6535889 0.7747208 0.05181996
-0.088214405 0.25211212 0.34272033 0.030428488 0.02115031 -0.56856704 0.009385045 -0.50787115
0.53119224 0.9188702 -0.08043121 -1.1835476 0.61378723 0.8613499 -0.5241292 -1.4469988
1.0434428 0.7461147 1.0037688 0.49286285 -0.115676165 0.051040813 0.6778245 -0.5485027
0.2297661 -0.8526713 -1.2134321 -0.70779693 -0.06544239 0.5325367 -0.22529055 -0.015683701
-0.17801037 -0.59388727 0.5879904 -0.18374373 -0.6251052 -0.3375488 -0.022652281 -0.11011465
0.16327885 -0.04517904 0.8825616 0.2381821 -0.99741113 0.39201877 0.4063245 -0.3365396

sequential_36/dense_137/MatMul f4 [5, 10]
00000000: fcd4 423f b172 03bf 9cbb 463f 1829 c5be
00000010: 1a2a 14bf 09c1 fb3e 9163 4a3f 7dd6 6e3d
00000020: c72a cd3d 8964 2b3e b422 3cbf 06c5 21bf
00000030: eb76 c8be 0e3a 003f f91b 443e d266 7bbc
00000040: b3ee fa3e 1290 723f 9d56 a93f 418a 32bf
00000050: cd56 453f 43db 403f 641c 77bf fef2 073f
00000060: 6fc5 99be 9edf 9dbf 51cc 0e3f ff7b bbbf
00000070: c194 39bf a368 17bf 01d7 8a3f 92f1 0bc0
00000080: f66c bdbf 41b3 82bf da8f c63f 2471 60be
00000090: 3bfa 2cbf 3575 ac3e 0a8d a7bf 2fa6 683e
000000a0: 315f d4be e1ea 083f 802a 2d3f f5bc 303f
000000b0: 91d1 12bf 0846 c23e 2a3a 4abf dc03 4c3e
000000c0: f953 d53e 882c 223f
0.7610624 -0.5134688 0.7763002 -0.38507915 -0.5787674 0.49170712 0.79058176 0.05831002
0.10017925 0.1673757 -0.7349045 -0.6319126 -0.39153227 0.50088584 0.19151296 -0.0153443385
0.49010238 0.94751084 1.3229557 -0.6974221 0.7708557 0.75334567 -0.96527696 0.5310515
-0.30033442 -1.2333868 0.5578051 -1.4647216 -0.72492605 -0.5914404 1.0846864 -2.1866193
-1.4798877 -1.0210954 1.551265 -0.2191816 -0.6756932 0.33683172 -1.3089917 0.22719644
-0.41478875 0.53483397 0.67642975 0.69038326 -0.5735102 0.37944055 -0.78995 0.19923347
0.4166563 0.633492
